nets/mlp_weight.npz (npz, 872277 bytes, 6 tensors)

W1 f4 [256, 784]
00000000: d8c3 4b3c b09c 56bb 602c 8a3a ec42 bdbc
00000010: 337f fdbc 708e 193c 2077 253c 7394 f9bc
00000020: 924e 40bc 2ee2 78bc 9928 0f3d d1ad ecbc
00000030: 00e8 7dbc 78c1 ac3c 206c 003d 3c33 1bbc
00000040: 214c e9bc 8c0d b43c 7eec cb3c 7cee 9a3c
00000050: 8845 01bd 0675 57bc 6a7d d63c 5627 f53c
00000060: b56f bebc 2659 ab3c 0036 edba 1cd3 ca3c
00000070: 5325 c9bc 76a9 d13c 74f6 2f3c dc22 d23c
00000080: d7d1 b8bc 45f4 8e3c 20ee 0a3d a888 d83c
00000090: f825 10bd 23c4 0f3d 4abf ab3c d586 ab3c
000000a0: 88cf 0cba 63dd e8bc 161f e03c 3799 113d
000000b0: febf 8cbc a2b6 b9bc da2f ac3c f841 e13c
000000c0: d85e 10bc a2fa fcbb 5959 1d3c a03b cd3c
000000d0: dc74 1abc 9ce7 8cbc 38a9 e43b c5e7 92bc
000000e0: 2890 553c 30bb 613b bb29 0a3d d095 b3bb
000000f0: cdc0 f53c 3520 9bbc c4f1 0bbd 3c09 dbbb
00000100: 9965 5a3b 3a15 f4bc 830b b1b9 739b 073c
00000110: 1109 81bb 0961 9b3c e7cd 193d 963f 49bc
00000120: 9dfe 72bb d3a8 063d 23da 123c 02cd 43bc
00000130: ac55 3c3a 9a2e 253c 7a19 cc3b 0cef 9fbb
00000140: 6f63 98bb e6c5 cf3c 5818 23bc 8e0c ba3c
00000150: 1a25 bc3c fc3b 173c 7608 f83a 633a 523a
00000160: d6ab f3bc 944f 0a3d f409 ec3c 2fe0 1c3c
00000170: df02 94bc bc36 f1bb 1910 353d c27e e13c
00000180: fc49 8c3b d8c5 de3c ef60 083d 9f90 2c3d
00000190: 2d4e a23c fddf a6bb 04d7 8bbc 5710 c43b
000001a0: bf75 3abc 0e48 83bb afa7 c43c d4d4 4a3c
000001b0: 4051 8d3b 64ff 75bc b17d f0bc e5a0 cbbc
000001c0: 0772 81bc 9156 82bb 8a51 c23b 5a25 e93c
000001d0: c348 5abc 216c 22bc 5a80 9b3c daf5 70bc
000001e0: 109e 4e3b 4993 b33c 897c 093a daa6 73bb
000001f0: 0453 8f3c 2359 b6bc f783 dabc 7be4 31bb
00000200: c8cf 183d 17fe 33bc e548 803c 6e0a 363c
00000210: 335a 27bd d1a3 04bd d0a7 0dbd 070f b23c
00000220: 1dcc 113c 15a6 e83c 5e62 3f3c 109e 0d3d
00000230: 0879 793c 353d e5bc 2cbb 113d d880 8fbc
00000240: 5f89 40bb fa52 c1bc 32bb 843c 31ab c13b
00000250: 9b74 013d 583f 413d 7efc 583d 92a9 71bc
00000260: a588 413c b22e 513c 51cd 883c 6240 fe3c
00000270: a263 123d 2c85 6a3d cb0d 913c d107 f03c
00000280: d80d 8d3c 1815 cf3c 7764 d83c d241 92bc
00000290: cb89 20bc 6f9d e6bc 6f61 85bc 9c60 0d3d
000002a0: a686 953c edc7 a23b d48d e3bc 24bb 01bd
000002b0: 5ca0 163a 2799 6bbc 3a5a 463d 1f8b c83c
000002c0: c960 00bb cec5 243d b1ec 533c c10b e63b
000002d0: 5e51 29bc 9b23 4ebb 579f b13c b8b9 8e3c
000002e0: e5ce 413a f603 2a3c 305b 81bc d429 15bd
000002f0: db67 acbb 9e27 aa3a b374 0c3d 7cdc 483c
00000300: 5aa1 55bc 9aa1 9f3c 0db4 083d 6a1e 33bc
00000310: 8486 a13b 09da 24bc 7c17 003d fae5 14bc
00000320: 7e36 0c3d 0202 033d cccc 433d a2d7 803d
00000330: b163 b13c 8dea ee3c dae6 623d 05ae b33c
00000340: 2b7b 103d 04d3 ed3b b448 31bd fa78 3ebd
00000350: 57f1 05bd 0def 91bc 5062 b33c be27 593c
00000360: 1939 b83b e0ba 083c af84 e3bb fbcc 32bb
00000370: c18d f23b 872f 2b3c 6ec8 d7bb 1d60 0abd
00000380: 739e e2bc 7c9e 023d 9519 9dbc e9f4 133d
00000390: c9d3 37bc 1cc6 7c3c cb4c 4b3d c45e 933c
000003a0: 05ed fb3c 985f ee3c 82c3 513c 8298 933b
000003b0: 8376 253d 2674 11bd a209 fabc 36a0 753b
000003c0: 6ec9 c23c a0e9 683c edb6 ea3b 894f a1bc
000003d0: fdf4 9e3b bbab 383d fe72 e03c 283a 3b3c
000003e0: bab6 c83c d3ac e2bc b02c c63b a9f9 0a3d
000003f0: a06a d33c 01fa 51bc 4ade cebb b013 0d3c
0.0124368295 -0.0032747202 0.0010541789 -0.0231032 -0.030944442 0.009372339 0.010099202 -0.030466294
-0.011737483 -0.015190644 0.034950826 -0.028891476 -0.015497208 0.021088347 0.031353116 -0.009472664
-0.028478684 0.021979116 0.024893042 0.018912546 -0.03156045 -0.013150459 0.026182849 0.029925983
-0.023246625 0.020916533 -0.0018097758 0.024758868 -0.02455393 0.0255935 0.010739911 0.025651388
-0.022560997 0.017450461 0.0339185 0.02643235 -0.03519246 0.03509916 0.020965237 0.020938316
-0.0005371501 -0.028425878 0.027358573 0.035546508 -0.017181393 -0.022670094 0.021018911 0.027497277
-0.008811675 -0.0077203074 0.009603822 0.025052845 -0.0094272755 -0.017200284 0.0069781803 -0.017932782
0.013034858 0.0034443848 0.033731204 -0.0054805055 0.029999161 -0.018936256 -0.034166113 -0.0066844504
0.0033324717 -0.029795278 -0.00033768648 0.008276808 -0.0039378484 0.018967168 0.03754988 -0.0122832265
-0.003707803 0.032875847 0.008963141 -0.011950733 0.0007184397 0.010081911 0.006228623 -0.0048807915
-0.0046505253 0.02536292 -0.0099545345 0.022711065 0.02296691 0.00923061 0.001892342 0.00080195646
-0.029745024 0.033767298 0.02881334 0.009574934 -0.018067775 -0.007361261 0.044204805 0.027526263
0.0042812806 0.027193949 0.033295568 0.04213011 0.019812668 -0.0050926195 -0.0170703 0.005983393
-0.011380612 -0.0040063923 0.024005739 0.012379844 0.0043126643 -0.015014503 -0.02935681 -0.024856994
-0.015801443 -0.0039776047 0.0059301304 0.028460193 -0.013323012 -0.009913475 0.018982101 -0.014707053
0.0031527318 0.021920817 0.00052446924 -0.0037178309 0.01749564 -0.0222593 -0.026674254 -0.0027144242
0.03730753 -0.010985873 0.015659759 0.011110885 -0.040857505 -0.03238279 -0.034583867 0.021735681
0.008898762 0.028399507 0.011681167 0.03457457 0.01522661 -0.027983287 0.03557889 -0.017517492
-0.0029378755 -0.023599137 0.016202543 0.0059103 0.031605344 0.04717955 0.05297517 -0.014749901
0.011812364 0.012767481 0.016699465 0.03103656 0.03573955 0.05725591 0.017706772 0.029300602
0.017218515 0.025278613 0.026415093 -0.017853651 -0.009798477 -0.028151242 -0.016281812 0.034515962
0.018252682 0.0049676807 -0.02777759 -0.03167261 0.00057459413 -0.014379776 0.04842589 0.0244804
-0.0019588938 0.040227704 0.01293485 0.007020444 -0.010334341 -0.0031454328 0.021682424 0.017422542
0.00073931954 0.010376921 -0.015790552 -0.036416844 -0.005261404 0.0012981778 0.03429098 0.012259599
-0.0130389575 0.019486237 0.033374835 -0.010932544 0.0049293656 -0.010061749 0.031272396 -0.009088034
0.034231655 0.031984337 0.04780273 0.06291129 0.021653982 0.029164577 0.05539594 0.021933565
0.035273712 0.007257821 -0.043282226 -0.04650209 -0.032700863 -0.017814184 0.021897465 0.013254104
0.005622041 0.008345336 -0.0069433074 -0.0027282822 0.0074021523 0.010448343 -0.0065851724 -0.033783067
-0.027663445 0.031889424 -0.019177238 0.036122236 -0.011219927 0.015428092 0.049633782 0.017989524
0.030752668 0.029098317 0.01280296 0.0045042643 0.040396225 -0.03551116 -0.030522171 0.0037479526
0.02377769 0.014215857 0.0071629197 -0.019691246 0.004850982 0.04508565 0.027398583 0.01142744
0.024501193 -0.0276703 0.0060478076 0.0339295 0.025807679 -0.012815953 -0.00631312 0.008610651

W3 f4 [10, 128]
00000000: 9c63 b3bd 539b 5c3e fd9f cbbd 64d4 203e
00000010: 7976 823e 1356 42bd 5dc4 7d3d 1acb a4bd
00000020: 9fbe c03d ff51 7fbd 686b 67be aa43 783e
00000030: bac0 353e fe2b 24be ec4f b7be 0224 93bd
00000040: 9849 933d a9fe 253e 169e abbe 3dbe 55be
00000050: 6a17 25be fa1a 903e 5349 3fbe 6522 8f3e
00000060: 5ae9 463b 624e 15be e3a5 94be e78f bdbe
00000070: 9171 a83e 0f02 ea3d fea3 c6bd 2b43 91be
00000080: b108 683e df2a 3c3d d6cc 4b3e a372 78be
00000090: 4b75 953e 1582 d13d 6f90 65be 2648 53bd
000000a0: d07f 97be 0b94 9ebe c70e 9a3e 6948 603e
000000b0: 982a 9fbe 1949 ba3d d0c8 553d 6444 88bc
000000c0: eb17 70be aa04 f73d 7b13 e63c ca48 b23e
000000d0: 93a1 7a3e 8ade d5bc eb6a aabe 69b8 d33e
000000e0: 6a29 cf3e a088 693e 70f5 813e f9c7 adbb
000000f0: a1aa d6be 528d 433d c1fb 7cbe 6def 1f3d
00000100: 6c31 b63e dba7 a53d 5873 973e b2b9 503e
00000110: 3560 c63e c392 b0bd e283 413d 85be a0be
00000120: 9240 cdbb f552 023e debf c53d 3a79 8fbc
00000130: 6367 33be b960 dbbd 944e 453e 264c 58be
00000140: 558b 3bbe b259 e3bd d21c 2cbd 4b63 2dbd
00000150: 2466 00be 8f98 843d 545a 23bd 6055 e03d
00000160: ab7d bf3d 3f25 ec3e ccd6 d63d 5653 63bb
00000170: 4dbb 423d 250c b33e e101 cd3b 423e 063e
00000180: e62e 83be 7b20 f2bd 7c5b 0b3e 6523 3a3e
00000190: d066 0f3e 83ed 4c3e 2db2 da3e 9206 c6be
000001a0: 5722 cb3d 9226 a5bd 4a81 b1bd f9dc 1abd
000001b0: 3140 da3d b24c 0ebe 349d 303e 209d bdbd
000001c0: 9074 4ebd 340b 26be aa4a 2c3e eddc a13e
000001d0: 7e62 7fbe bf8d 2e3e bb0c 4ebd fa9f a93d
000001e0: 2888 33bd 5527 f8bd ffef 723c 7416 36bd
000001f0: 5732 643e 99cb d03c 0d98 f7be 622f 0ebd
00000200: 96fa a73e f498 f03b 7001 9d3e 0dfa c53d
00000210: e65f 8bbe 066c 1abe f8b9 3e3d 65c4 70bd
00000220: 3939 c53e d2ea cd3d 114a 843e 0425 523e
00000230: 30c8 88be 53ec ba3d 7969 1e3e e73a 283e
00000240: ef87 923d 76a6 0e3e 6bc1 0ebe d56b b63e
00000250: b511 893c 6f07 143d 5a5b a13e 6177 44be
00000260: e188 503e 8532 ef3e 383a df3e 369a 253e
00000270: b995 19be 3a98 753e e972 3a3e 3399 8b3e
00000280: d86c 1cbe 258b c3bd 0224 b9be 9498 673e
00000290: 3f2b 74be 8498 343e 5afa 823e 7b25 83bc
000002a0: 5217 163e 6922 c3be f52e 60be aaab 433e
000002b0: a0a5 693d e367 903d c521 b03d 3f9c 083d
000002c0: 3999 13be 49d3 f5bd a442 213e 5e6c f4bd
000002d0: 8ebe 13be 6122 463e f189 1e3e caef 79be
000002e0: 3098 27bc 8e5c d5be 2f99 b9be dbdd 183e
000002f0: 71a3 1b3e f06f b7bd 2849 04be 9a59 503b
00000300: 1f99 1dbe 638d d83d 4305 15be 5dc2 49be
00000310: 5876 cdbe 83ff 0b3e 6fd1 10be 5ad1 923e
00000320: d369 9f3c 4a76 b2bd aa5f c53a 4e0b 4cbe
00000330: 2233 13be 4284 8d3e 89e2 1fbe 7e05 173d
00000340: 4ada acbd ba28 bd3e 9680 b1bc 945a c13e
00000350: 41e9 17be 0688 7bbd 80e1 8c3e 054a 6dbe
00000360: 167a 62bd 4d23 20be ea62 f3bc 7438 c7bd
00000370: 5f9d 513d b429 cabd fefd f4bd a582 953d
00000380: 3ce4 f5bd c2cd 1cbe 97be 96be 98b1 c13d
00000390: 1e64 80bc 3c24 973b c4b9 e6be 8790 a13e
000003a0: 5eb1 aa3d 1d90 113d 9e7c 8abe 396d 053e
000003b0: 82f4 82be 2524 853e 75e9 72be f94d 45bd
000003c0: cb6a 44be d95f b03d 5839 22be 2f20 a3be
000003d0: fc20 4abe 2c76 8cbe 6428 683e 70bd d03d
000003e0: 534f 143e 4b07 2c3e 8bb8 e3bc bac1 663d
000003f0: cf56 40be b0f3 2f3e b51c a43e 5777 773d
-0.08759233 0.21543626 -0.09942625 0.1570602 0.25481012 -0.047445368 0.061954845 -0.08046551
0.09411358 -0.062334057 -0.22599566 0.24244562 0.177493 -0.16032407 -0.35803163 -0.07184602
0.07191771 0.16210426 -0.33519047 -0.20873351 -0.16122213 0.2814558 -0.18680315 0.27955928
0.003035149 -0.14580682 -0.29032812 -0.3702385 0.32899144 0.11426174 -0.09699248 -0.28371558
0.22659566 0.045939323 0.19902357 -0.2426248 0.2919105 0.10229889 -0.22418378 -0.051582478
-0.295897 -0.30972323 0.300894 0.21902622 -0.31087184 0.090959735 0.052193463 -0.016634174
-0.23446624 0.120614365 0.02808546 0.3482116 0.24475698 -0.026107091 -0.33284697 0.4135163
0.40461284 0.22806025 0.25382566 -0.0053033796 -0.41927055 0.047742195 -0.24705411 0.039046694
0.3558458 0.080886565 0.29580188 0.20383337 0.38745275 -0.086217426 0.047244914 -0.31395355
-0.006263801 0.12726958 0.096557364 -0.01751386 -0.17519908 -0.10711808 0.19268256 -0.21122798
-0.1831487 -0.111010924 -0.042019673 -0.04233102 -0.12538964 0.06474411 -0.039881065 0.10953784
0.09350141 0.46122167 0.10490188 -0.0034687123 0.047541905 0.34970203 0.0062563275 0.13109687
-0.25621718 -0.118226014 0.13609117 0.18177564 0.14004064 0.20012479 0.42714062 -0.38676888
0.09918659 -0.08063997 -0.08667238 -0.037808392 0.10656775 -0.13896444 0.17247468 -0.09258485
-0.05040413 -0.16215211 0.16825357 0.31613865 -0.24939916 0.1704626 -0.05030511 0.08282466
-0.04383102 -0.12116877 0.014827727 -0.044455007 0.22284828 0.025487708 -0.48358193 -0.034713157
0.3280837 0.007342452 0.3066516 0.09666834 -0.27221602 -0.1508027 0.046564072 -0.058781046
0.3852022 0.10054554 0.25837758 0.20521933 -0.2671523 0.091271065 0.15469922 0.1642872
0.071548335 0.13930687 -0.1394097 0.35629144 0.016732076 0.0361399 0.31515008 -0.19186164
0.20364715 0.4671823 0.43599105 0.16172108 -0.14998521 0.23983851 0.18207897 0.2726532
-0.15275896 -0.09548024 -0.36160284 0.22616798 -0.23844622 0.17636305 0.25581628 -0.016009083
0.14657333 -0.3811219 -0.21892913 0.19108453 0.057042718 0.07051065 0.08600191 0.033352133
-0.14413919 -0.1200319 0.15748078 -0.11934732 -0.1442816 0.19349052 0.15482308 -0.24407879
-0.010229155 -0.41672176 -0.36249682 0.14928381 0.15199067 -0.08956897 -0.12918532 0.0031791688
-0.15390442 0.105738424 -0.14552788 -0.1970305 -0.40129352 0.13671689 -0.14142393 0.28675348
0.01945964 -0.08713968 0.0015058417 -0.19926187 -0.14374974 0.27639967 -0.1561376 0.036870472
-0.08440073 0.36945134 -0.02166776 0.37764418 -0.14835073 -0.06140902 0.27515793 -0.23172767
-0.05529221 -0.15638466 -0.029710252 -0.097275645 0.05117547 -0.098712355 -0.11962508 0.07300309
-0.12006423 -0.15312865 -0.29442284 0.094577014 -0.01567274 0.004612474 -0.45063603 0.31555578
0.08334611 0.035537828 -0.270482 0.13029946 -0.2557717 0.2600414 -0.2372187 -0.048170064
-0.19181363 0.086120315 -0.15842187 -0.31860492 -0.19739145 -0.27433908 0.22671658 0.10192382
0.14483385 0.16799657 -0.027797958 0.056337096 -0.18783115 0.17182803 0.32053152 0.060416546

b1 f4 [256]
00000000: 1b05 3f3c 69c2 7db9 9560 06bd 17ac d7bb
00000010: 9639 f9bc 5d84 8b3b 0013 08bd c5c7 1a3c
00000020: b6c5 ae3b 3232 ca3c 8919 3cbc e043 29b9
00000030: 1c2d 86bc 4049 243c 156a f03c 44f0 2b3d
00000040: 72d8 a5ba 712a 9bbc 709d 513c 6ee5 063d
00000050: a8e7 033d 2f84 ab3c 5794 dfba bd31 ad3c
00000060: 3e01 1abb 1732 753c 2fb9 85bc 93ec 353c
00000070: b24d 053d 76c1 7dbb 7d02 763c 402d 04bd
00000080: 1359 11bd bd73 c9bc b651 a6bc 3c12 1dbd
00000090: 004b 123c 5e81 7abb 417c 3fbc 11b3 95bb
000000a0: 588f 7c3c e898 a43c cc95 2dbb fb67 453c
000000b0: b79c 3ebc 1672 a139 48d5 2d3d b1a3 50bc
000000c0: ef5a 86bc dbe3 993c 4838 a63b d57d ce3a
000000d0: 1bd8 dbbb 241a b73c 676d d2bb 37b4 c73c
000000e0: 0123 dbbb 3d3c 7bbc a10f 313b 9f19 18bc
000000f0: 3db6 ab3c dd33 e13c f20f 64bb bfdd 63bc
00000100: 5a31 69bc 4f7d 91bc 1688 c03c 4fbe 44bc
00000110: 287a e839 a128 dd3c e372 e13b f185 39bc
00000120: 5a58 e43b fd59 8d3c a0ed 99bb 76f0 38bc
00000130: f9e5 35bc 3871 d5bc 9523 c4bc b2ef 5a3c
00000140: 769e b0bc 38fe a5bb 71b4 97bc 5419 4d3c
00000150: dc54 713c 5d5f a3bb dcfe b13b 7aa4 89bc
00000160: ee52 98bc 54da 00bc f4bf a1b9 2328 f6bc
00000170: 9e5b 893c c9e8 4ebc 4653 3cbc 476d 89bc
00000180: 9960 debc ae03 e1b9 aeab e63b abfc ff3c
00000190: 9a95 8eb9 a53d 76b9 b5dc e43c 050b b7bc
000001a0: 04fe aa3c 048f 2abb 4594 3ebd 579c d33b
000001b0: 199a 2e3d 3dd1 08bd aead a33b b903 8f3c
000001c0: fba6 90bc bb11 713c 941f 60bc a8fc 62bc
000001d0: 1527 2bbd 4647 7c3c f6b8 1e3b 4a34 09bc
000001e0: a0dc e53b f6b9 eeba 40b4 8c3c 6379 b63c
000001f0: 3d25 ba3c 6590 98bc b2c2 48bc c38e debc
00000200: 9de8 94bc 195f a8bc 8bde 16ba 8fc5 6e3c
00000210: f529 11bb 4f2e 06bc fb1b c03c 2ef6 05bd
00000220: 63a3 0cbc 2879 aabb 2179 63bc 5b99 de3c
00000230: 352f 683c f2b6 b9bc 0371 09bd ebe1 6e3b
00000240: ab62 48bc 2a7f a63c 82ca 2c3c d879 bb3c
00000250: 00f6 b9bc 8c4a 173d abba 033d 5260 c03b
00000260: 94bb f3bb f968 9f3c dd39 593b 4a1c d9bc
00000270: 1992 94bc 6047 ae3a 47d8 a23b bc35 cd3b
00000280: 8095 11bb 7708 4dbc c842 e6bb 7f6f d8bc
00000290: 3ff7 eabc bb9c 8ebc 702f 26bd 57c3 613c
000002a0: 4df3 63bc bc2b 25bd 0084 693c 84b5 9d3b
000002b0: 33c3 3e3c 8144 22bc 5844 00bc 0bf2 12bc
000002c0: c28d 553a 1dd1 89bb 710d b43c 57e8 cd3c
000002d0: 8f57 743c 02dd 6cbc c30c 92bb d064 103d
000002e0: 8faa 13bd d2d5 07bc 462f ec3c a9d4 95bc
000002f0: 9f6e c03c 2ba2 d03c 685c ef39 0b09 aeba
00000300: 4cf1 af3c f225 d4bb 4e12 623b d818 14bd
00000310: 802f b8bc 5201 1fb9 cb18 143d a5df e2bc
00000320: b5cc 373c eb8f f5bb 6943 3bba aaa9 c53b
00000330: c56c 28bc 88bf 20bc de3e 243c 832e 95bc
00000340: a9ea adba 4623 aebb c9d8 27bd fc62 f5bc
00000350: 4de2 4bbc 74cd 5abc 7086 0f3c a89a 96bc
00000360: bdc4 0ebb 57af 90bc 00e7 613c f615 073d
00000370: 5404 41bd 23a2 12bc 91c4 13bd 23a1 b7bc
00000380: f5b5 e53c 982f 00bb b763 5cbc 5f57 0bbd
00000390: 8adf 953c fd0c c23b 59f3 4e3c 953b ff3c
000003a0: 2fb4 ad3c b98b c13c 0f11 b53c f736 b2bc
000003b0: 67e6 40bb b3f2 0a3d 7f70 f9bb c63e bfbc
000003c0: 288c 083d 81ac 3ebb 98c1 bdbc cf54 2cbd
000003d0: 7ac5 0a3c f3a1 933c ef8c f03c a7c7 97bb
000003e0: 8f16 fc38 2f04 af3c cea2 e1bc aec8 363b
000003f0: 28cd 2d3c 7aba d43c 65a8 183c 9e76 3e3c
0.011658932 -0.00024200384 -0.03280695 -0.006581794 -0.030422967 0.0042577223 -0.033221245 0.009447043
0.0053336276 0.024682138 -0.011480697 -0.00016142381 -0.016378932 0.01002723 0.029347459 0.041977182
-0.0012653007 -0.018941136 0.012793884 0.032933645 0.032203346 0.020937053 -0.0017057759 0.021141881
-0.0023499276 0.014965556 -0.016323654 0.011103767 0.0325448 -0.0038720048 0.015015242 -0.032269716
-0.03548534 -0.024591321 -0.020302635 -0.038347468 0.008929014 -0.0038224082 -0.011687339 -0.0045684655
0.015415035 0.020092443 -0.002648699 0.012048717 -0.011634043 0.00030793314 0.04243973 -0.01273434
-0.016400782 0.018785408 0.005072627 0.0015754054 -0.0067091114 0.022351332 -0.006421733 0.024377925
-0.0066875224 -0.015334186 0.0027017372 -0.009283452 0.020960921 0.02749055 -0.0034799543 -0.013907849
-0.014232958 -0.017759947 0.02350239 -0.012008264 0.00044341502 0.026996912 0.0068801506 -0.011323438
0.00696854 0.017254824 -0.0046975166 -0.011287799 -0.011102193 -0.026054963 -0.023942748 0.013362812
-0.021559935 -0.0050657056 -0.018518658 0.012518246 0.014729705 -0.0049857334 0.005431993 -0.016802061
-0.018594231 -0.0078645535 -0.0003085133 -0.030048436 0.01676732 -0.0126287425 -0.011494463 -0.01677574
-0.02714567 -0.00042918086 0.007039509 0.031248411 -0.00027195812 -0.00023483353 0.027937273 -0.022344122
0.020873077 -0.0026025185 -0.04652812 0.006457846 0.042627428 -0.03340267 0.0049950695 0.01745783
-0.017657747 0.0147137 -0.013679404 -0.013854183 -0.04178532 0.015397852 0.0024219132 -0.008374283
0.007014826 -0.001821338 0.017175794 0.022274679 0.022722835 -0.01862354 -0.01225345 -0.027167683
-0.018177325 -0.020553159 -0.00057552074 0.014573469 -0.0022150252 -0.008189752 0.023450842 -0.03270548
-0.008583876 -0.005202431 -0.01388386 0.027172735 0.014171411 -0.022670243 -0.033555042 0.0036450576
-0.0122305555 0.020324308 0.0105463285 0.022885248 -0.02270031 0.036936328 0.032160442 0.0058708573
-0.0074381325 0.019459235 0.0033146061 -0.026502747 -0.018136071 0.0013296418 0.00496963 0.006262509
-0.0022214353 -0.012514225 -0.007027004 -0.026420353 -0.02868235 -0.01740872 -0.040572584 0.013779483
-0.013912988 -0.04032491 0.014252663 0.004812898 0.011643219 -0.009904028 -0.007828794 -0.00896884
0.0008146429 -0.0042058364 0.021979066 0.025135202 0.014913454 -0.014456989 -0.0044570877 0.035252392
-0.03605133 -0.008290725 0.028831135 -0.01828988 0.023490248 0.025467953 0.0004565448 -0.0013277841
0.021477364 -0.00647425 0.0034495774 -0.036156505 -0.022483587 -0.00015163913 0.036156457 -0.027694533
0.01121824 -0.007493963 -0.0007143529 0.0060321884 -0.010279839 -0.00981129 0.010024754 -0.018210655
-0.0013268787 -0.0053142635 -0.040978227 -0.029954426 -0.012444091 -0.013354648 0.00876008 -0.018384293
-0.0021784746 -0.017661734 0.013787985 0.032979928 -0.04712327 -0.008949789 -0.036076132 -0.022415703
0.028040865 -0.0019559618 -0.013451508 -0.03401887 0.018295068 0.0059219585 0.012631261 0.03115634
0.021204082 0.023626195 0.02210286 -0.021754725 -0.0029434205 0.033922862 -0.0076122875 -0.023345362
0.03333679 -0.002909452 -0.023163602 -0.042073067 0.008469934 0.01802156 0.029364077 -0.0046319547
0.00012020498 0.0213643 -0.027543452 0.002789061 0.010607995 0.025967825 0.009317492 0.01162496

b2 f4 [128]
00000000: 08b9 31bd 9b8a 5fbd 1ba0 e73b 5bc7 e9bc
00000010: 6e37 423d d94a 843d 5e1b 343c 3b01 fa3c
00000020: 8551 3dbd f2c9 5e3d ad2e 2ebd 24d2 41bd
00000030: dc5e 63bd 55b7 f23c 564f f43c 2163 513d
00000040: 2264 45bd e3aa 1cbd 2b5e 7a3d 9347 e83c
00000050: 60e3 443c 8cf1 d8bc d4a7 41bd 1871 5e3d
00000060: 34ac ce3c 33c9 f43c 5041 9e3c 7b0b 593d
00000070: 28c7 b2bc 260e 823c 5425 173c 2cc5 433c
00000080: 89de 8cbc b491 87ba 99bc 813d afae 9c3b
00000090: 6d2b 40bd e81a 603d fc0d f2bc f118 5fbc
000000a0: 05fe 083d f71f 1f3d 0e52 ffbb a8e7 bd3c
000000b0: 9512 a0ba dc9c 493d 6bca 12bd 8324 fe3c
000000c0: a372 f63c abab 623d 4e2c 6d3c afe8 1c3d
000000d0: c8e7 1b3d 07e4 223c a373 2f3d f430 053c
000000e0: a903 12bb 2bae 0639 f4c6 afbc 7ced 433c
000000f0: 99dd 5ebd f785 e83c b3dc 25bd 38cd 113d
00000100: 537e d23c c373 343c e868 04ba 965f d5bc
00000110: 1145 0a3d a3c7 e53c b7af 323d e8cc 6e3d
00000120: bfae 3cbd 74b5 013d 2377 0f3c 6809 3d3d
00000130: fe69 d8bc 969b 3fbc 211e d8bb 1fd7 10bd
00000140: 3cb4 08bc 3715 c33c 55ee 75bd 4109 233d
00000150: f77f 8cbc 1488 5dbd d189 943c 7e0d 813c
00000160: 294c 9a3a 3359 84bb 96d5 31bc e06c 4b3c
00000170: a630 5f3d d7f3 803d d473 2ebd f827 2cbd
00000180: 1c3d 3a3d 7349 523d 61d2 21bd 88be f53c
00000190: 365a 4cbc 7225 13bd d5e8 79bb 17f9 463d
000001a0: 738e ff3c e91b 1abd 0ff5 983c e7de 273d
000001b0: 0595 cdbc 2db1 7abd ac32 bf39 a543 d1bc
000001c0: 6cfd 17bd f135 fdbc cc31 f2bb fde6 73bd
000001d0: 9b85 21bd 36cd 35bb e493 67bd 7c1d c23c
000001e0: d05a 1e3d e05b 9abc bae1 20bd ccbf 4fbd
000001f0: c827 61bd 7325 5b3d 74b9 90bc d769 42bd
-0.04338935 -0.054575544 0.0070686466 -0.028537443 0.047416143 0.064595886 0.010992853 0.030518165
-0.04622032 0.05439181 -0.042524982 -0.047319546 -0.055510387 0.029628435 0.029822987 0.051119927
-0.048191197 -0.038248908 0.06112496 0.028354442 0.012017101 -0.026482366 -0.047279194 0.054307073
0.025228597 0.029881096 0.019318253 0.052989464 -0.02182348 0.015875887 0.009225208 0.011948865
-0.017195957 -0.0010343106 0.063348 0.004781566 -0.046916414 0.05471316 -0.029547684 -0.013616786
0.033445377 0.038848843 -0.007791764 0.023181751 -0.0012212569 0.04922186 -0.035837572 0.03102327
0.03008396 0.055339497 0.014475895 0.038307842 0.03806284 0.009942061 0.04283489 0.008129347
-0.0022280014 0.00012844118 -0.021457173 0.011958476 -0.05441055 0.028384192 -0.04049368 0.035596102
0.025695002 0.011013928 -0.00050510326 -0.026046555 0.033757273 0.028049296 0.043624606 0.058300883
-0.04606509 0.031667188 0.008756432 0.04615155 -0.026417729 -0.011694809 -0.0065953885 -0.035361405
-0.0083437525 0.023813827 -0.060041744 0.039803747 -0.017150862 -0.054084852 0.018132122 0.015753504
0.0011771965 -0.0040389537 -0.0108541455 0.012416095 0.054489754 0.06296509 -0.04259093 -0.042030305
0.045468435 0.051339578 -0.039507274 0.029998079 -0.01247268 -0.035924383 -0.0038133163 0.048577394
0.031195855 -0.037624273 0.01867154 0.04098406 -0.025095472 -0.061204124 0.00036468112 -0.02554495
-0.037106916 -0.03090951 -0.00739119 -0.05954646 -0.039434057 -0.0027740723 -0.056537524 0.0236957
0.038660824 -0.018842638 -0.03927777 -0.05072002 -0.05496958 0.05350251 -0.017666556 -0.047464218

b3 f4 [10]
00000000: 4ffd 933d cb72 93bc bd21 ebbc befc 89bd
00000010: 58e1 febc bfbb a5bc 25b3 ca3b 0f80 95bd
00000020: a67b 553d 2fad 40bd
0.07226049 -0.017999073 -0.028702611 -0.0673766 -0.031113312 -0.020231126 0.0061859065 -0.07299816
0.052119873 -0.04704016

W2 f4 [128, 256]
00000000: a4af 66bd fb36 4bbd 29ca 933d 2009 713d
00000010: 9650 a53d cb68 1d3d b3a1 5abd 7869 073d
00000020: 08e9 b2bc b5ce 31bd e552 343d 7064 b6bb
00000030: 5f77 c83b 6e2c 7abd 1d22 623d 74a9 773d
00000040: 4a71 0f3d 893c 203d 6b9c 27bc deaa 04bd
00000050: 8a87 433d f027 153d 65b1 94bb 6954 343d
00000060: 0873 3d3d f793 dd3c 56a1 873d bcd2 33bc
00000070: 1dd2 013d 8be3 d5bd d8be 56bb fb3a 9bbd
00000080: 03b9 27bd 72c6 b03d 144e 15bc e500 94bd
00000090: cc42 a93d 3e4d 5a3b 7a7f 5dbd b92b 54bd
000000a0: 5eab ba3c 54cd 56bd 4233 363c 50ed fc3c
000000b0: 9000 cc3c 30c4 d93c eecd 0b3d 17bb 353d
000000c0: f782 a3bd d00f 383c 2e45 d53c 866c 0cbd
000000d0: bf45 70bc 8b3c 9d3c d4ab e6bc 875b 643d
000000e0: 083d 7d3d ef11 1a3d 1739 973d 21f1 1f3c
000000f0: 2913 6abc 4e9a b7bd 17a7 bcbc 897c c23d
00000100: c05b 8abd 52d1 303d 8561 ec3c fcbb c33d
00000110: a923 0a3b f439 3cbd 0d22 813c 9523 1e3d
00000120: 71ce 713d 56c6 723d 71bf 383d bf94 27bc
00000130: 1973 cb3d 3a42 8f3d a6ae a83c 1165 82bd
00000140: 5851 56bd 9a7e 95bc b8aa 90bd b989 19bb
00000150: 213d 67bd 0160 c73d c9c6 a13c d513 dd39
00000160: 701e 8bbc b33a dd3d 6205 7bbc 8800 2f3c
00000170: ae47 3d3d 6ce8 3bbd c28b e3bd 717c 6fbb
00000180: 715d 713d ffcf b23c 8b4a 1a3d a5db 25bd
00000190: 138e 233d ad5b 633d a837 cb3c 623c 58bb
000001a0: ee2b da3b 816a 57bd bf11 c03d 5810 31bd
000001b0: 5af8 c6bc 55e1 953c 4acd 753d 5c1f 2abd
000001c0: af4c c1bd 9e36 b13d a561 c43b 4655 c63d
000001d0: 29ef 1dbd a900 1cbd 4369 71bd eeb5 89bd
000001e0: 3c2a bcbd d214 713d ff2a 3d3c 558e debc
000001f0: b3cb 593d 982d a5bd 4d26 80bd 4d62 5fbd
00000200: 7ed1 973c b1a1 99bd db9a 88bd b541 e93c
00000210: ee9e 8abd acf3 9e3c 8ae4 4d3d 304c 86bd
00000220: b24c 373c f47b f5bc 66f3 093d 0b45 85bd
00000230: a0de 3abd 77e4 4a3d a0ba 5cbb 2f25 ae3d
00000240: 2ebd 723d 9392 f2bc b45a 23bd 0f87 74bd
00000250: e5e0 333d 08f4 363d 63c7 b93c 3d87 52bd
00000260: a760 9fbc 7618 56bd 18b6 babd e709 30bc
00000270: 2d42 ac3d 18ce 1ebd fbd1 cf3b 7a36 80bd
00000280: 7568 f6bd f13d 28bd b811 9c3d d161 113c
00000290: 24b2 1c3d 3d63 7abd d9c2 8c3b 9e69 8abd
000002a0: deb5 8abd a2c0 473d 0287 63bb 044b 82bd
000002b0: afdf 86bc 6c30 1d3d 2a27 d93d e6c1 a6bb
000002c0: 21fe 06bc 7d4f c1bd 61e7 74bd c41c 0c3a
000002d0: b174 a0bd 95c4 003d 2847 323c 8cd8 dc3c
000002e0: 8f03 953d 2feb f73b 23ac f33c 24fe aebd
000002f0: b933 46b9 46a5 063b 77dc d0bc 97c5 7f3d
00000300: 0cdf 45bd 8456 f33a 04fd 87bd 28c5 43bc
00000310: 1378 803d 6990 413d cc9c 863d a80b 743c
00000320: 31fc 3d3d b0b7 a7bd 6354 653c f71b 3a3d
00000330: c426 b0bd 0622 b6bc 741d 33bd 33a8 d2bd
00000340: e14c 72bc 9ea2 1fbc 634b 373d d9ec 99bd
00000350: ae94 293d 80ce d03d 7659 2cbc 9838 883d
00000360: cf0d 4b3c e79a a83a 54df 4c3d d94e 74bd
00000370: 1125 773d 5d94 bb3c 4a78 ef3b 2109 7abc
00000380: 42b8 fb3c 996c 5abd d46c babc 7bd0 e5bc
00000390: 4f35 8abd 8317 fe3c e6fb 9cbc d1ba 5dbd
000003a0: dba1 2e3d 736b 9f3d 26bb a0bd 4a31 ad3b
000003b0: dfe2 d3bc 8618 3cbb 0a8d 2d3d 7f4c e73c
000003c0: 45d8 d13d a894 90bd 0e4e 553d 3449 7ebc
000003d0: 9f5b 7c3b 3276 2d3c 4987 2fbc f507 92bd
000003e0: c69e fcbc 07f8 363d ee36 2cbd d534 48bd
000003f0: 5bae 8dbd 3429 d0bc 6b9f c1bd 3c84 d5bc
-0.056319848 -0.04961298 0.07216293 0.058846593 0.08072011 0.038430016 -0.053376865 0.033059567
-0.021839634 -0.04341002 0.044024367 -0.0055661723 0.006117746 -0.061077528 0.055208314 0.060464337
0.03502015 0.03912023 -0.010230164 -0.032389514 0.047736682 0.03641504 -0.0045377486 0.044025812
0.04625228 0.027048094 0.06622569 -0.010975536 0.03169452 -0.10443791 -0.003276756 -0.07579609
-0.040947925 0.086316004 -0.009112854 -0.07226733 0.082646936 0.00333102 -0.05407665 -0.05179951
0.022786792 -0.05244191 0.011120619 0.030874878 0.024902612 0.026582807 0.034131937 0.044367876
-0.07983964 0.011234239 0.026033964 -0.034283184 -0.014665066 0.019193908 -0.028158106 0.05575135
0.061825782 0.03761476 0.07383936 0.009762079 -0.014286795 -0.08964978 -0.023028893 0.094964094
-0.06755781 0.043168373 0.028855095 0.095573395 0.0021078384 -0.045953706 0.015763307 0.038608152
0.05903477 0.05927118 0.045104448 -0.010228335 0.099340625 0.069950536 0.020591091 -0.06366933
-0.05232367 -0.018248845 -0.07063812 -0.0023428036 -0.05645478 0.09735108 0.019748108 0.0004216718
-0.016982287 0.108022116 -0.015321108 0.010681279 0.046210937 -0.04587595 -0.11110641 -0.0036542679
0.058927003 0.021827696 0.037668746 -0.040492672 0.039930414 0.05550735 0.024806812 -0.0032994975
0.006658069 -0.052591804 0.09378385 -0.043228477 -0.024288345 0.018295923 0.060010232 -0.041533813
-0.09438454 0.086529955 0.0059930854 0.09684233 -0.03855816 -0.038086567 -0.058938276 -0.067241535
-0.09187743 0.058857746 0.011545896 -0.027167479 0.05317278 -0.08065337 -0.06257305 -0.054537106
0.01853251 -0.07501543 -0.06670161 0.028473714 -0.06768595 0.019403301 0.05026678 -0.065575
0.011187719 -0.029966332 0.03367939 -0.065073095 -0.045622468 0.049534287 -0.0033680573 0.08503186
0.059262447 -0.029610908 -0.039881423 -0.059699114 0.043915648 0.04466632 0.022678083 -0.051398505
-0.019455267 -0.05226942 -0.09116763 -0.010744548 0.084110595 -0.038770765 0.0063421703 -0.062603906
-0.12031642 -0.041074697 0.07620567 0.008873419 0.038255826 -0.061129797 0.0042956886 -0.06758426
-0.0677297 0.048767693 -0.0034717922 -0.06361964 -0.016464083 0.038376257 0.10603173 -0.0050890325
-0.0082393 -0.09438989 -0.059790973 0.00053448626 -0.07834757 0.031437475 0.010881223 0.026958726
0.072760694 0.007565878 0.029745167 -0.08544567 -0.0001890202 0.0020545288 -0.02549575 0.062444296
-0.048308417 0.0018565212 -0.06640056 -0.011948861 0.06272902 0.04725686 0.065728754 0.014895357
0.046383087 -0.081893325 0.01399717 0.045436826 -0.08601144 -0.02223302 -0.04372926 -0.10285988
-0.014788837 -0.009743361 0.04474963 -0.07515878 0.041401558 0.10195637 -0.010519376 0.066514194
0.012393429 0.0012863547 0.05001767 -0.059645507 0.060338084 0.022897894 0.0073080407 -0.015260966
0.03072751 -0.053326223 -0.022756971 -0.028053513 -0.06748449 0.03101707 -0.019163083 -0.05413324
0.042634826 0.07784166 -0.07848196 0.0052854167 -0.025865017 -0.002870114 0.042370833 0.028234718
0.10246328 -0.07059604 0.052076392 -0.015520383 0.003850676 0.010587262 -0.010713407 -0.07130424
-0.030837428 0.04467013 -0.042044573 -0.04887851 -0.06918021 -0.025410272 -0.09454235 -0.02606403
